MLP-noadv-nobound-run_2/policy-1499.pt (torch, 52523 bytes, 7 tensors)

sigma f4 [6]
00000000: 0581 69be 6d27 83bd 73e2 f3bc 999b b3be
00000010: df2e 82be 7829 2ebe
-0.22803123 -0.06404004 -0.029771065 -0.3507965 -0.25426385 -0.17008007

layer1.weight f4 [100, 20]
00000000: 3c4e bc3d 3412 fabd 89d5 303e 38b9 273e
00000010: 9719 d03d 0f57 603d 61dd 24be a06b 403e
00000020: 5147 66bc 09b5 7ebc 121c 463e c452 24be
00000030: e4bb 103d d0dc 03be ac8f 3fbd e4d8 01be
00000040: abd8 973d 700f 273e 6fea 39be b7e2 913c
00000050: 05c5 a93d 1602 9d3c 002f 7cbd 63d9 f6bc
00000060: db45 c0bd f8fb 56be ee9b 2dbd 79f2 173e
00000070: d1b0 adbe f91f 4bbe 6b1a f9bd 577e 5abe
00000080: 4388 193d cb74 ab3d 0039 613c e7b1 1d3e
00000090: 47bf 01be 39b2 9cbd 1d20 4a3e de4b c8bd
000000a0: d9e1 533e 116f e33b e79c 1cbe 776b bc3d
000000b0: 463c af3c 2cb5 1bbe b59f b8bc 4d48 c03d
000000c0: 5902 173e f978 43be 6a9a 31be 3737 2a3e
000000d0: 6297 d93d e737 58bd e2db a73d a8d7 2ebd
000000e0: 840b 4b3e 33f3 e33c 16bf 0d3e 43ea 163e
000000f0: b40c 3bbe fd35 edbd 3553 a7bd 2e97 c63c
00000100: 8e61 473e 275b e7bc edae 65bd 60e6 dabd
00000110: ccec e8bd 114f eebc 4804 0c3e 313e 9dbd
00000120: 7ddc 983e a18b dfbc d407 3cbe 535b ccbd
00000130: dac2 823d 558d 38bc bff0 02be e6c3 3a3e
00000140: 156f 18be 3672 29be f6be 883d 91e4 ccbd
00000150: 5057 b7bd d674 c3bd f07b 243e c1f4 26be
00000160: ceaf d6bd 1d4f 07be aff3 56bc 97f8 043e
00000170: 5291 8cbd a46d 98bd c482 733d aec5 423e
00000180: 28be 14be 0a67 f63c c243 083e 222e 253e
00000190: 6f65 143e d207 2c3e d6c8 1f3d 001d 4e3e
000001a0: 4b4a f43d 4609 5bbe 11db 06be f33d 0f3c
000001b0: 28ed 83be 9aa3 8ebd 0fc8 8f3d 65b9 e53d
000001c0: 4b95 ed3a 61bd 3a3e a51b adbd 7936 8ebd
000001d0: 30e8 043e 3f43 81be 84a9 07be 4275 17be
000001e0: 8632 6a3c 828d 23bd 8f00 1e3e 4764 33bd
000001f0: 7d0a c1bd cde5 533d 7ad5 2d3e febc d23d
00000200: 2426 dabd fefe 2f3e dc68 04be da46 363e
00000210: e519 60bd bd40 a9bd 1079 ffbd b2bf 55be
00000220: abb9 003e 8c3d f53d ea2f 19be bea7 ecbd
00000230: 4176 053d 2053 e8bd 1a34 3e3d 8b36 463e
00000240: 712e bf3d 7733 23be 4632 e4bd 1cf2 073e
00000250: 26bf 24be 4e47 333e fbe4 e9bd 9b04 48be
00000260: f623 fbbd 9238 a93d 8992 a1bd 8ae0 11bd
00000270: 00ac c53c ac9d d83d 43e2 343e 3483 1abe
00000280: 6a8b 133e 4e15 e3bd 5a06 413d d37d 433d
00000290: 08cf 603e 3e2a 60be 8bdd 16be 7011 5a3c
000002a0: 8082 a83d 0170 533e e8a0 7b3e eea0 9bbb
000002b0: 72d2 84bd 728b 123e c6f3 c93d bc5a 0f3e
000002c0: 6ff1 843d d3e6 3d3e 745a 68bd 1004 113e
000002d0: 06cc 8dbd c51a 64bd eb0a 8abb 79b0 c9ba
000002e0: 75e1 5ebe bb56 133d 176a 343e 2cd0 ea3d
000002f0: c0c8 0cbd b684 05be 80f2 8b3e bd61 0b3e
00000300: 9ccb 6f3e 0027 bebd cd3a e0bd e439 6cbd
00000310: ed8a 253d 5225 d5bd 0f80 fd3a 56d6 08be
00000320: a916 093e f437 7bbd 471c 0dbe 1cb1 2ebd
00000330: 1976 2d3e e102 54be d172 103e d000 c83d
00000340: f6d3 c3bd 7482 f0bc 0709 72be 64f8 c8bd
00000350: 7506 5b3e db54 1a3e fae9 893d aaec cbbc
00000360: 6dbe 2cbe 3ba1 0ebe 5671 db3d 8fcf 4dbe
00000370: 0b17 f7bd 94bb a0bd 378c 4dbd 5cec 653d
00000380: 3753 263e 6b62 08be 6b3a 11be 98c3 9d3c
00000390: 3666 c7be f198 71be 4e2b b63d fe5b d1bd
000003a0: f90f 37be 7aa3 a4bd 5f68 9bbd 0d56 453d
000003b0: 8e38 41be 31e8 83be c27f a43c dbb9 693d
000003c0: f93d 2ebe 672e 2ebe d3e0 b83d d746 e13c
000003d0: bf0f 5ebe b9c5 e6bd bf96 1dbe d36b b53d
000003e0: 2dcc fa3d b4ae a9bd f652 1b3d 62e0 59be
000003f0: 5c9f 1fbe 9985 1dbe 62ac df3d 1de4 443e
0.091946095 -0.12210503 0.17268957 0.16379249 0.10161131 0.054770526 -0.16100074 0.18791056
-0.014055089 -0.015546092 0.19346645 -0.16047198 0.035335436 -0.12877202 -0.046767876 -0.12680393
0.07414373 0.16314483 -0.18155836 0.017808301 0.082895316 0.019166034 -0.06156826 -0.030132955
-0.09388324 -0.20994556 -0.042385034 0.1483859 -0.33923963 -0.19836415 -0.12163242 -0.21337257
0.037483465 0.08371886 0.0137465 0.15399896 -0.12670623 -0.07651181 0.19738813 -0.097800955
0.20691623 0.0069407304 -0.15294228 0.09200185 0.021391045 -0.1520583 -0.022537092 0.0938879
0.1474699 -0.19089116 -0.1734406 0.16622625 0.10624577 -0.052787688 0.08196236 -0.042686135
0.19828612 0.027825927 0.13842425 0.14737801 -0.18266565 -0.11582563 -0.08170167 0.02424201
0.19470808 -0.028241707 -0.056075025 -0.10688472 -0.113732904 -0.029090436 0.13673508 -0.07677878
0.2985572 -0.02728826 -0.18362361 -0.09978356 0.06384821 -0.011264165 -0.1278715 0.18238792
-0.14886124 -0.16547474 0.06677048 -0.10004533 -0.089522004 -0.09543769 0.16062903 -0.16304304
-0.10482751 -0.13213773 -0.013119622 0.12985454 -0.06863655 -0.07442787 0.05945088 0.19020721
-0.14525664 0.03007843 0.13307098 0.1613088 0.14491819 0.16799858 0.03900989 0.2012825
0.11928233 -0.21390256 -0.13169505 0.008742797 -0.25766873 -0.06964798 0.0702058 0.11217002
0.0018126158 0.18236305 -0.084525384 -0.069439836 0.12979198 -0.25246617 -0.13248259 -0.14790824
0.014294272 -0.039929874 0.154299 -0.043796804 -0.094258286 0.051732827 0.16975966 0.10289954
-0.10651806 0.17187116 -0.12930626 0.17800465 -0.054712195 -0.08264301 -0.12474263 -0.20873907
0.12570827 0.1197463 -0.14959684 -0.11555432 0.03258348 -0.1134398 0.046436407 0.19356744
0.0933503 -0.15937601 -0.111424014 0.13275951 -0.16088542 0.1750767 -0.11420628 -0.19533007
-0.122627184 0.08262743 -0.078892775 -0.035614528 0.024129868 0.105769485 0.17664437 -0.15089113
0.14408651 -0.11088048 0.047125198 0.047727417 0.21953976 -0.21891114 -0.1473295 0.0133098215
0.08228016 0.20648195 0.245731 -0.004749409 -0.06485452 0.14311007 0.09860949 0.13999456
0.06491362 0.18545084 -0.056726888 0.14161706 -0.0692368 -0.055689592 -0.0042127273 -0.0015387676
-0.21765693 0.035971384 0.17618595 0.11465487 -0.034371138 -0.13038906 0.2733345 0.13611503
0.23417515 -0.092847824 -0.10948715 -0.057672396 0.040415693 -0.10407509 0.0019340533 -0.13363013
0.1338755 -0.061332658 -0.13780318 -0.042649373 0.16939582 -0.20704223 0.14106299 0.0976578
-0.09561913 -0.02935908 -0.23636256 -0.09813002 0.21389182 0.15071432 0.067340806 -0.024893124
-0.16869517 -0.13928692 0.107149765 -0.20098709 -0.12064942 -0.07848278 -0.050182547 0.056133613
0.16242681 -0.13318793 -0.14182441 0.019258305 -0.38945168 -0.23593499 0.088949785 -0.10222624
-0.17877187 -0.08038993 -0.075882666 0.048177768 -0.1886923 -0.25763085 0.02008045 0.05706201
-0.17015828 -0.17009889 0.09027257 0.0274996 -0.21685694 -0.11268181 -0.15389536 0.088584565
0.12245975 -0.08285275 0.037920915 -0.21277002 -0.15588135 -0.15382995 0.10921551 0.19227643

layer1.bias f4 [100]
00000000: 626d 2cbc b2d9 813c b567 8d3b d323 b7bb
00000010: 1724 b639 58dd dc3b 685f 4ebb 3700 cd3c
00000020: bf4a c73b ce6c 0ebc 75fe c4ba 3ef7 29ba
00000030: 71ee 25bb 303d 00bb 5212 483c dd87 cc3b
00000040: 8e65 a2bb a54b ad3a b49a 41bc 52f4 0d3b
00000050: abeb 07bb b7c6 dbba 7470 8a3c 3748 773c
00000060: 678a 0c3b 5f1a 37bb 7937 8b3b 40ab ac3b
00000070: f110 093c a1f3 2e3b 182e e73a 01e7 e0bb
00000080: 2288 093a ec59 a83b 622f 70bb bd0e 9a3b
00000090: 5130 9bbc 9049 573b 7304 893b 3d84 1e3c
000000a0: 0ed2 023c 4830 fcba a30e 0fbb 0f7e 13bc
000000b0: 18e0 523b 5a9f 33ba f072 80bc b97e 573b
000000c0: 179f 813b b894 71ba de59 503b f52d 253c
000000d0: c4ce ea39 a8dd 56bc bf0b 823c 5379 4dbb
000000e0: 7b61 ba3b 8d71 abbb a3c1 d7ba afa9 5ebc
000000f0: 9f9b 41bc 8498 44bc 548c 02bc 6b79 553b
00000100: 10b6 6bbc c523 293b 6c91 74bc 2a49 dd3a
00000110: 1407 7dbb 8b93 b9ba 7455 f63b 6764 543b
00000120: 4998 a13b 5a15 903c 5a5c 9d3c 2b36 f93a
00000130: fa95 af3b 4317 a73b c621 e93a 3333 c73c
00000140: b4f5 e4b9 3824 433c 617e 1f3b 9ced e33a
00000150: d692 853b c6b1 17bc 6fb9 89bb 46e8 eebc
00000160: f47c 733b 46e1 5e3b b751 163b 2e05 d9bb
00000170: 9f6d 4d3c b9a3 003c 096d 123c 5a7f 4e3c
00000180: d8a7 84bb c68a debb 9733 1b3b fbaa 223c
-0.010524126 0.015850876 0.0043153414 -0.0055889874 0.00034740634 0.0067402534 -0.0031489972 0.025024517
0.0060819085 -0.008692933 -0.0015029447 -0.00064836803 -0.0025319124 -0.001956772 0.012211399 0.006241782
-0.004955954 0.0013221396 -0.011816669 0.0021660519 -0.0020739834 -0.0016767596 0.016899325 0.015092901
0.00214448 -0.0027939302 0.004248556 0.005269438 0.008365856 0.0026695507 0.0017637638 -0.0068634753
0.00052464206 0.0051376726 -0.0036649336 0.004701464 -0.018943937 0.0032850243 0.0041814386 0.009675083
0.007984651 -0.0019240463 -0.0021828793 -0.009002223 0.0032177027 -0.00068520533 -0.015679806 0.003288193
0.0039557326 -0.0009215581 0.0031791846 0.010081758 0.0004478601 -0.01311437 0.015874742 -0.0031352832
0.00568789 -0.005232042 -0.0016460906 -0.01359026 -0.011816888 -0.011999253 -0.007968027 0.0032573591
-0.014386669 0.0025808674 -0.014927249 0.0016882767 -0.0038608955 -0.0014158351 0.007517511 0.0032408477
0.004931484 0.017588306 0.019209076 0.0019013336 0.005358455 0.0050992086 0.0017786555 0.024316406
-0.00043670612 0.011910491 0.0024336802 0.0017389539 0.004076342 -0.009258693 -0.0042030136 -0.029163491
0.0037153335 0.0034008785 0.002293689 -0.006622932 0.012538343 0.0078515345 0.008937129 0.012603605
-0.004048329 -0.0067914454 0.0023681873 0.00992846

layer2.weight f4 [100, 100]
00000000: f1b0 9abd a50c ec3d 70c1 0bbd 2e6f d5bd
00000010: 7c26 24be cbc7 02bd ef5d 023e 3c34 c63c
00000020: 4e08 b73d ad99 b3bd 3702 2dbe 3e82 043d
00000030: 8193 a63c a773 1e3e 0eaa 22bd c913 e43c
00000040: dcf9 2a3e b38f 91bc dd1c 113e dabc 38bd
00000050: 99fa 213d a8b5 e33d dc73 4dbb c761 2b3e
00000060: 7089 34be 1dbf 7c3d 19ef 113e 619e 1ebd
00000070: 33e0 f23c d191 da3d 9d18 0a3e 965b eb3d
00000080: eece f53d 815e 253e 1e61 c8bd 01e3 2a3e
00000090: d269 c83c d1f9 8abd 4aec 993c e887 26be
000000a0: a410 2b3e ac31 0e3e c3b7 883d 7ff5 28be
000000b0: 4934 c5bc b997 7bbc 6bdf fabd baec 18bd
000000c0: fcdc ec3d fbde 333d 7f99 edbc c796 bebd
000000d0: 11c0 a73c 8530 f6bd 3348 adbd 85a2 b8bd
000000e0: 06ea 0b3d 18fe d9bd 153d 103e b77f b83d
000000f0: aa3f d4bd 4b3e eebd af91 85bd b24d 28be
00000100: 810c c9bd 7214 b2bd d185 f8bc d020 113e
00000110: 1b41 a6bd 64b1 2dbd 5d2e 01be 1242 403e
00000120: d149 92bc 75b8 a93d fa7a 263e 3ff8 3ebe
00000130: 0282 083e b8bf a23d cfcc 26bb 49b8 4cbd
00000140: 7edb 193e 2dff 0fbe d408 babd 8a84 b9bd
00000150: b2b3 123d 62aa 02be bbbe 3abe 113f a0bc
00000160: 052c 883c 6bb0 3e3e 697d 5bbd a5dd 573c
00000170: 7844 3c3d 4590 05bd 0d8e f73d e882 e9bd
00000180: 4cb3 503d 6daf 8b3d 4a3c fbbb f74e 17be
00000190: 3242 0d3e 69c4 14be 5f4e e13d 8a29 52bd
000001a0: 7b03 db3d dab9 8ebd fbf9 f93d 45be 17be
000001b0: 2408 e63d 90b9 c7bd 1d80 0f3d 594f ea3d
000001c0: 5a10 c8bc 4b9d 0c3e 8507 923d 329e d93d
000001d0: b7f5 76bd aaa3 bc3c 44ee 32be 69ab 1e3e
000001e0: 1f66 f53c 16cc 31be cf72 06bc d655 2fbe
000001f0: d26c c0bc 11cd 803d 724d 063d a8a7 f2bd
00000200: 77e2 de3b 4044 e53d 81f2 10be 5dfd e73c
00000210: d256 b3bc d337 c7bc f082 cbbd e496 933d
00000220: 2314 303d 058b 3ebd 05d7 f3bd b607 ee3d
00000230: ed55 f43c 7e09 c8b9 d361 1c3d 0b54 133e
00000240: 609c 20be 2d57 18be bc35 903d 2e10 99bd
00000250: 3e7a 3d3e 491a 7c3d d86d 31be fea5 d63d
00000260: e74a 3bbd 0437 7dbd 4157 16bd 5a89 b3bd
00000270: 23db 13be aeaa dcbd 39c1 223d e56f 40be
00000280: 43f4 b13d 4dcb e0bd 411f 83bc 60c1 aabd
00000290: 0001 c6bd 503f 923d 6420 20be 08d5 9abd
000002a0: a399 bd3c 50e1 c5bd c9c1 aaba ad42 333a
000002b0: a983 033e 9599 37be 5a4c 01be 69bf ae3d
000002c0: 7a7b 22be 6984 e9bd 0a56 a93d 1cd3 09be
000002d0: 4891 0bbd 43ed 5dbd 5b4b 0b3d 71e1 d43d
000002e0: 028b efbc 86e8 67bd 4f53 033e 757d 853d
000002f0: f3dd 293b b9ca 09be b40e d33c 17b6 e3bd
00000300: 214d c33d 2490 88bc 4591 a63d 4ff2 693d
00000310: 7aca 00be 65d8 16bd 60fd 16be 2c26 22bb
00000320: 7072 70bb 0bc2 ce3c 5c69 7ebd 98ad 2fbe
00000330: 6d7f 953c 7690 be3d 9f2f 303d 24b9 063d
00000340: 52d9 043e a4ee 0dbe 18e0 d9bd 6864 5c3e
00000350: 7e62 27be 3d8e 9fbc 5599 ee3b 67bb 4b3c
00000360: d65e b6bd 7ab1 6dba 171e da3d 2bdb d6bd
00000370: 3ee0 e5bd 6750 53bd a3eb d5bd bc07 85bd
00000380: efc2 60bd 2a91 2b3e 34d9 013e 2855 e7bd
00000390: 849c 613d 33dc 183e d470 b4bc b7d1 493d
000003a0: 9677 54bd 2b99 31be 53e2 dc3d 7050 8d3d
000003b0: ce86 aebd e23d f2bd e057 423b 9f52 b0bd
000003c0: dd3a 673d 00c9 04be f4d5 b7bd ccb8 6c3d
000003d0: aaa5 b9bd d3cf 05bd 02f6 2a3c 0604 babd
000003e0: 12db 60bd f785 bbbc b163 50bd db20 2b3d
000003f0: 5cd5 113e fd7f d93d 80c3 4dbd 83b8 d03d
-0.0755328 0.11525849 -0.034120023 -0.104215965 -0.16030306 -0.03192882 0.12731145 0.02419483
0.08937131 -0.08769546 -0.16895376 0.03235077 0.020334007 0.15473805 -0.039712958 0.027841466
0.16696876 -0.017768716 0.14171167 -0.045101978 0.03954563 0.111186326 -0.0031349575 0.16736518
-0.17630553 0.061705697 0.14251365 -0.03872526 0.029647922 0.106723435 0.13485952 0.11492078
0.12002359 0.16149332 -0.09784149 0.16688158 0.024464522 -0.0678593 0.01878943 -0.16262782
0.16705567 0.13886136 0.06675675 -0.164999 -0.024072783 -0.015355998 -0.12249645 -0.037335135
0.11565587 0.043913823 -0.029003857 -0.09306102 0.020477327 -0.12020973 -0.084610365 -0.09015373
0.03415873 -0.10644168 0.14085801 0.09008735 -0.103637055 -0.11632975 -0.065219276 -0.16435888
-0.09816838 -0.08695306 -0.030337246 0.14172673 -0.08117887 -0.0424055 -0.12615342 0.18775204
-0.017857464 0.082871355 0.1625785 -0.18649386 0.13330844 0.07946724 -0.0025451665 -0.049980436
0.15025136 -0.14062186 -0.09083715 -0.09058483 0.035815902 -0.12760308 -0.1823682 -0.019561322
0.016622553 0.18621986 -0.053586397 0.013175403 0.045963734 -0.03260829 0.12087641 -0.114019215
0.05095224 0.06820569 -0.007667099 -0.14776216 0.13794783 -0.1452805 0.11001276 -0.051309146
0.10694023 -0.06969042 0.12205883 -0.14818676 0.112320215 -0.0975219 0.035034288 0.114409156
-0.02442186 0.13731878 0.071303405 0.106258765 -0.060292926 0.02302726 -0.17473704 0.15495075
0.029955922 -0.17363009 -0.008206083 -0.17122588 -0.02348939 0.06289113 0.0327887 -0.11848384
0.006801899 0.11194658 -0.14155008 0.028319055 -0.021891985 -0.024318611 -0.09937084 0.072065145
0.042987954 -0.046519298 -0.11906246 0.116225645 0.029826129 -0.00038154045 0.03817923 0.14387529
-0.15684652 -0.14877005 0.07041499 -0.07473789 0.18503663 0.061548505 -0.17327058 0.10480879
-0.04572573 -0.061820045 -0.036704306 -0.08766432 -0.14439063 -0.10774742 0.039735053 -0.18792684
0.08689167 -0.109762765 -0.016006114 -0.083376646 -0.096681595 0.07140982 -0.15637356 -0.07560164
0.023144549 -0.096621156 -0.0013027723 0.00068382436 0.12843193 -0.1792968 -0.12626782 0.08532602
-0.15867415 -0.11402208 0.08268364 -0.13459438 -0.034074098 -0.05418135 0.03400741 0.10394562
-0.029241089 -0.056618236 0.12824748 0.0651807 0.0025919646 -0.13456239 0.025763847 -0.11118715
0.095361955 -0.016670294 0.08133177 0.05711585 -0.12577239 -0.036827464 -0.14745092 -0.002474199
-0.0036689304 0.025239011 -0.062112197 -0.17156065 0.018249238 0.093048975 0.043014165 0.032891408
0.12973526 -0.13860565 -0.106384456 0.21522677 -0.16346166 -0.019477004 0.007281462 0.012434817
-0.08904807 -0.00090672786 0.106502704 -0.10491022 -0.112244114 -0.05159035 -0.10445335 -0.06495616
-0.054873403 0.16754594 0.12680513 -0.11295539 0.055080906 0.1492775 -0.022026457 0.049272265
-0.05187186 -0.17343585 0.107853554 0.06900108 -0.08521806 -0.118282095 0.0029654428 -0.08609509
0.05645262 -0.129673 -0.08976355 0.057793424 -0.09064801 -0.0326689 0.010434629 -0.09082799
-0.05489642 -0.022891028 -0.050876323 0.04177938 0.14241546 0.10620115 -0.05023527 0.10191443

layer2.bias f4 [100]
00000000: cc68 a53b e6a9 66bb 77eb 173b 1277 1e3c
00000010: 6547 bbbc 4767 f5bc b090 cdbb 7206 4abc
00000020: a151 12bb f28f 37b9 aca1 4a3a 61de f4bc
00000030: 0f15 4ebb e829 183c 7a4e e73b 3f83 64bb
00000040: b940 fbba c941 7b3a 10af 593a 86b7 753b
00000050: 244f 403c 6a06 f03b bafa 7cbb 4694 11bc
00000060: aab7 333a 7af0 3d3a 84c8 183c 722e 37bb
00000070: 7d78 afbb beec 8dbb b3d8 ecbc 6524 853c
00000080: aafa 933c 455f 98bb bd5c a43b 28fa 053c
00000090: fb7c 8ebc f6c2 4c3d e3a7 87bc 60a8 93bb
000000a0: a65f a53b 41bf 173c 69b7 f83c 1786 7239
000000b0: c6e7 183b a9c4 a5bb 88c2 f3bb 6684 663c
000000c0: c516 b03b 2052 b13b 0321 0e3c abc3 843a
000000d0: 71dd 603c 94da 23bc ab67 123a 067e ef3a
000000e0: 5076 dc3b 36ca c1bb e9c5 a4bc be94 f33b
000000f0: e211 b43b b89b 823c 7dc9 10bc 3159 af3c
00000100: 9ad6 c9bb a666 223c 72f2 1a3c 66f8 25bc
00000110: 5487 293c 5f23 cf3a 3bfb f03c c36c 703c
00000120: ea6c a5bc 73ba 963a 8189 09bd 969a 6139
00000130: 5e46 d23c dd31 a43b 0e5d 893b 39da 24bd
00000140: b976 423c 668d 143c 7695 753c ed90 86bb
00000150: 78ce 753c 56c0 643a 703f 6538 1df2 373a
00000160: 9be8 15bb a2c7 863b 495f 85bc d092 dc3b
00000170: e4b4 56bb dbd3 0f3c 2abb f9bb 10a7 1fbc
00000180: 1cfe 3bbc 35d5 983b 7758 743c 62fb 8bbb
0.005047893 -0.0035196482 0.002318112 0.009671943 -0.022861192 -0.029956473 -0.0062733516 -0.012330638
-0.0022326487 -0.00017505864 0.00077297795 -0.029891195 -0.0031445657 0.009287335 0.0070589157 -0.0034868268
-0.0019169069 0.0009584693 0.00083039794 0.0037493422 0.011737619 0.0073249834 -0.0038601593 -0.008885449
0.0006855676 0.00072456116 0.00932515 -0.0027951268 -0.0053549395 -0.0043312004 -0.028911924 0.016252706
0.018063862 -0.004650029 0.005015938 0.008177318 -0.01739358 0.049990617 -0.016559547 -0.004506156
0.0050468026 0.009261907 0.030360894 0.00023128871 0.0023331507 -0.005058844 -0.0074389614 0.014069652
0.005373808 0.0054114014 0.008674863 0.0010129114 0.013724671 -0.010000844 0.0005584906 0.0018271811
0.006727971 -0.005913998 -0.020113902 0.007433503 0.005495296 0.015943393 -0.008837101 0.021404834
-0.0061596157 0.009912169 0.0094572175 -0.010130024 0.010347206 0.0015803388 0.029416671 0.014674368
-0.020193536 0.0011499658 -0.0335784 0.0002151526 0.02566832 0.005010827 0.004192001 -0.040247176
0.011869126 0.009066915 0.014989248 -0.004106632 0.015002839 0.000872617 5.4656935e-05 0.00070169737
-0.002287424 0.0041131536 -0.016280787 0.0067313686 -0.0032761628 0.008778538 -0.0076211886 -0.009744421
-0.011474159 0.004664088 0.01491367 -0.0042719105

mu.weight f4 [6, 100]
00000000: 7467 773e ddd1 5bbe 020c 463e 49d9 403d
00000010: ad5f 77be 0dfa 3ebe 0bb9 403e 102c 16be
00000020: d4ab dbbd 96b8 2fbe 6792 85bc 4788 643d
00000030: 7f67 3cbe 435d 433e 2434 303e e332 10be
00000040: 814d f1bd c6da 07be 2756 0fbe 8075 bd3d
00000050: 6233 23be b59f debd 4ed5 a4bd 32bb f73d
00000060: d9e3 a83d 8603 8ebe ad16 30bd 42cd 4abd
00000070: 61c5 933d 784c 54bd 3b90 64be 08e5 5fbe
00000080: f05b 10bc f33c ce3d 99f5 f13d 6a8e 8cbc
00000090: c415 5e3e be4b a53c 9141 95bd 0e5d 313e
000000a0: a05f 373d ac3a 60be 2a11 92bd 213b 2fbe
000000b0: 4ee9 b7bd d9ac 53be 4279 02be 05a6 a23e
000000c0: 694e 4e3d c3b1 1e3e 5d7b 1f3e f86d 08be
000000d0: e1aa 673e 6594 49be b473 0b3e 78ab 28bc
000000e0: 7978 1d3e b08d 08bd e370 563e d0c2 7d3e
000000f0: 5366 f8bd b3d3 483d 89b0 32be 9c7c 80be
00000100: 34de 45be 0147 ba3d 2f6e 543e 4dc0 e03d
00000110: 5705 723b 3285 013e 07fe af3d 0453 0dbe
00000120: 4e49 92bb ad95 483e b6c5 16be e0aa d43d
00000130: 7c4f 093c 9296 4f3e 3548 03bd c95d c3be
00000140: 94ac 1f3e 69ac 433e 8c69 c9bd 5300 f3bd
00000150: 0222 acbd 61fa 34bd 6bd3 7c3d 4ea7 32bd
00000160: 42f6 08be c23f 923d cb97 4f3c 43b3 45be
00000170: 3859 0e3d f0d8 10be 4f95 63bd 608d 7a3d
00000180: 3de9 263d 2c48 93bc 83b2 843d 33f7 383e
00000190: b71d 32bd 1390 3f3d 311b 0cbe 8751 1e3e
000001a0: d8aa 07be 41ce 51be 6fca e43d 24a1 5bbd
000001b0: c88d 063e 2448 90bc e840 4abe 90a6 26be
000001c0: 5b7c 153c cac6 ab3c 835f 5ebe 193a d1bd
000001d0: 8471 603b 9138 bdbc 3cbc 93bd d20f 183e
000001e0: 623a 063e f28b 623e 90dc 37be 9a8a aebd
000001f0: 1b14 403e f963 16be cf7a 6d3e fcdb 6fbe
00000200: ebdc 33be e23e 73be 4503 41be 9281 5e3e
00000210: 8500 2a3e 311c bf3d 7f1f 5b3e 6316 093e
00000220: b3de 0e3e 2eae 8c3e 231c 6fbe 05c5 2bbe
00000230: 0d33 293c 103b 5a3d 7bba 683e 39b2 0cbe
00000240: 6c11 763d 9dee 5ebe 8fcf 8dbd e0be 06be
00000250: a2a0 0f3e 0ee2 c4bd 4cc0 7cbe 2bfb 703e
00000260: 2f0f 2c3e d5ae 593c 5a83 103e fcdc cebd
00000270: e3f7 243e 528e f2bd 6019 3abd c62b ca3d
00000280: f66c 743e 4a2e 68be ab24 30be 8cd3 393e
00000290: aba7 ce3d 3967 26be 375f 08be 96c2 5ebe
000002a0: a09f 1e3e 2f62 39be 52d9 743d 82c8 513e
000002b0: c1e6 703d 823d e2bd 9f0f a2bd 0f33 ef3d
000002c0: 9e58 563e 2683 25be 34c7 073e 1664 febd
000002d0: df1d f63d d83a c3bd 64e9 be3d 27ea cabd
000002e0: 92af 1b3e f730 f9bd 3d18 0b3e db42 34be
000002f0: 9411 a1be 0cd2 3c3d f032 d9bd b505 ca3c
00000300: 6f1c 07bc 7b5d 8bbe 78d1 50be dab5 64be
00000310: f21e 1e3e 81d6 2fbe 71ec 6c3e 7404 dd3b
00000320: 3945 9fbb 82db 78bd aaf0 aabd f8fb a0be
00000330: 60d4 0b3e 6417 76bd c311 c33d 0fde edbd
00000340: 57e7 3f3e 30db 24be 5cd9 4dbe 150d 1d3e
00000350: 767b 733d f095 8c3e 31b7 473d 135b 36be
00000360: 6892 143e f5fc 773d a2e5 133d 3df1 17be
00000370: 4233 193e e7b2 d83d 079e 0b3e 2edf da3d
00000380: d963 3d3e 1c62 533e 67f5 483b 9bbb 6ebd
00000390: effe 89bc ae8a ff3d 9760 ed3d 3665 79be
000003a0: c9ec 243e 79de 5f3d 924d a538 8a20 ce3d
000003b0: 7071 27be b301 983e d694 8c3e 0ed1 04bd
000003c0: d6b2 063e 5d5c ac3d b7e9 133e b478 f8ba
000003d0: 0e0f 48bc 4526 343e f8b2 693e a2ea 303e
000003e0: 5d52 2fbe 205e 86be f9b7 933d 9b4b 5abd
000003f0: b48a 5e3e ce9a aa3d 16a5 65be effa 1ebe
0.24160558 -0.21466775 0.19340518 0.04708222 -0.24157591 -0.18650074 0.18820588 -0.14665246
-0.10726133 -0.17160258 -0.016305162 0.055794027 -0.18398856 0.19078545 0.1720739 -0.14081912
-0.11782361 -0.13267049 -0.13997708 0.09250927 -0.1593757 -0.108703054 -0.08048497 0.120962515
0.082465835 -0.27737063 -0.042990375 -0.049512155 0.072153814 -0.05183074 -0.22320645 -0.21864712
-0.008810982 0.10070219 0.11814422 -0.017157752 0.2168799 0.020177718 -0.072878964 0.17320654
0.04476893 -0.21897382 -0.0713218 -0.171124 -0.08980046 -0.20671405 -0.12741569 0.31767288
0.050367747 0.15497498 0.15574403 -0.133232 0.22623779 -0.19685514 0.13618356 -0.010294788
0.15377988 -0.03333825 0.209415 0.24781346 -0.12128892 0.049030017 -0.17450155 -0.2509507
-0.19323045 0.09095574 0.20745157 0.109741785 0.0036929452 0.12648466 0.08593374 -0.13801199
-0.004464305 0.19588347 -0.14723858 0.10384154 0.008380767 0.20272282 -0.032051284 -0.3815749
0.15593177 0.19108738 -0.098345846 -0.11865296 -0.08404924 -0.044184092 0.06172506 -0.043616585
-0.1337519 0.07141067 0.012670468 -0.19306664 0.034753054 -0.14145255 -0.055562314 0.061169982
0.040749777 -0.01797875 0.06479361 0.18063049 -0.04348537 0.04676826 -0.13682248 0.15460788
-0.13248765 -0.20488836 0.11171424 -0.053620473 0.13140023 -0.017612524 -0.19751322 -0.16274476
0.009123887 0.020968813 -0.21716122 -0.102161594 0.0034247348 -0.023098262 -0.07213637 0.14849785
0.13108209 0.22123697 -0.17955232 -0.0852253 0.1875767 -0.14686574 0.23191379 -0.23423761
-0.17564742 -0.23754457 -0.18848903 0.21729115 0.1660176 0.09331549 0.21398734 0.13387446
0.1395214 0.2747664 -0.23350577 -0.16774376 0.010327113 0.053278983 0.22727387 -0.13739862
0.06007521 -0.21770711 -0.06924354 -0.1315875 0.1402612 -0.09613429 -0.2468273 0.23533313
0.16802667 0.013286312 0.14112607 -0.10100743 0.16110186 -0.11843552 -0.045434356 0.0987163
0.2386969 -0.22673908 -0.17201488 0.18147105 0.10090574 -0.16250314 -0.13317572 -0.21753916
0.1549058 -0.1810386 0.059777565 0.20486644 0.058813814 -0.11046888 -0.07913136 0.116796605
0.20932242 -0.1616331 0.13259584 -0.12421434 0.12017416 -0.09532708 0.093218595 -0.09907942
0.15203694 -0.121675424 0.13583465 -0.17603628 -0.31458724 0.046098754 -0.10605419 0.024660924
-0.008246525 -0.27219757 -0.20392406 -0.22334996 0.15441492 -0.1717167 0.2313707 0.0067449156
-0.004860547 -0.060756214 -0.08346684 -0.31442237 0.13655233 -0.0600809 0.09524872 -0.1161462
0.18740593 -0.16099238 -0.20102447 0.15337022 0.059443913 0.27458143 0.04875869 -0.1780818
0.14508975 0.060543973 0.036107667 -0.14838119 0.1496096 0.10580998 0.13634501 0.106870994
0.1849512 0.20642895 0.003066385 -0.058284383 -0.016845195 0.12477623 0.11590689 -0.24355015
0.16105951 0.054655526 7.882262e-05 0.100648 -0.16351867 0.29688796 0.27457303 -0.032425933
0.13154158 0.084160544 0.14444624 -0.0018956871 -0.012210621 0.17592724 0.22822177 0.17277005
-0.17121263 -0.26243687 0.072128244 -0.05329476 0.21732599 0.08330308 -0.22426257 -0.15525411

mu.bias f4 [6]
00000000: a132 c33c b208 8a3d cee9 393c dcec 7c3d
00000010: f7b8 963d 56b5 2c3d
0.023827853 0.0673994 0.011347247 0.061749324 0.07359498 0.042165123
