MLP-noadv-nobound-run_2/value-1499.pt (torch, 7327 bytes, 3 tensors)

0.weight f4 [32, 44]
-1.5515432 -0.024158394 -0.41484654 -0.5057507 0.5485762 0.20055565 -0.24670738 0.014761278
-0.06830634 -0.14503789 -0.12624386 -1.4481537 0.34123763 0.43236527 0.2201786 0.117039
-0.41479576 -0.018689284 -0.024906112 0.70257777 -0.07921376 -0.005293509 0.77751327 0.36935163
0.3805552 0.34803113 0.19905725 0.56759405 0.0335385 0.07803528 0.067765966 -0.13879016
0.10752877 0.099037245 0.13120313 0.12610064 -0.021635488 -0.013180364 0.08597456 0.8141571
0.098204926 -0.2956743 -0.5073939 0.77181596 -1.6518723 0.04875257 -0.46516192 -0.32775056
0.41537067 0.1401428 -0.2611694 -0.16070937 0.11683604 0.35820484 0.5051168 0.5070742
-0.55544555 -0.17025062 -0.05978228 -0.41896337 0.06836521 0.07255513 -0.11008457 0.753085
-0.023624929 -0.20369643 0.66650605 0.4267366 0.6337774 0.5952906 0.2606138 0.31393206
0.1104856 0.02171741 -0.06129702 -0.04139327 0.032389794 0.020298986 0.037651077 0.009316737
0.03576983 -0.07474277 0.0240683 0.8403317 0.029614119 -0.20209272 -0.606837 0.8866855
-1.4870738 -0.14776471 -0.22851682 -0.522298 0.5520273 0.28363973 -0.12004139 -0.04985488
-0.13900578 0.05346693 -0.4060333 -0.5011751 0.6713259 -0.45515037 -0.096250795 0.06792658
0.03503049 -0.17826226 -0.076361954 0.6222563 0.058663383 0.08525022 0.64809513 0.5773616
0.6170521 0.681069 0.26126862 0.48794058 -0.12496502 -0.07571867 0.04692264 -0.06074084
0.019982673 0.013629323 0.05477738 0.08741199 0.05500538 0.05836465 -0.061615713 0.7095456
0.06613377 -0.2960136 -0.4258169 0.90301645 -1.5561349 -0.3500424 0.10563351 -0.73184437
0.6836284 0.0044854605 0.014994001 0.08843235 -0.11242489 -0.15921463 -0.21589795 0.18244314
0.689997 0.089748934 -0.4759926 -0.11361629 0.88072324 0.043338444 -0.034099348 0.7211551
0.16128393 0.29614702 0.76136196 0.64616257 0.53481 0.6404757 0.45629627 0.4358644
0.08302818 0.0034534172 -0.023822702 -0.05313276 0.1344427 0.040628012 0.068894364 -0.010953385
-0.05216936 0.21121626 0.033701085 0.74054366 0.026264926 -0.1503072 -0.38329414 0.8687385
-1.616747 0.18170618 -0.12714635 -0.6967374 0.5148438 0.11424674 -0.15029894 -0.1270658
0.11471871 -0.0019022926 -0.30478376 0.49892786 -0.051846582 -0.4080817 0.679553 0.63435197
0.38872886 0.05554406 -0.049514852 0.7636797 0.091346495 0.020518685 0.5818334 0.58726645
0.60248536 0.5734229 0.27751854 0.5554756 0.05847002 -0.06298769 0.08463802 0.019470077
0.056842778 -0.0018121973 0.006776531 -0.0050772233 0.07786772 0.010783539 0.052657165 0.5695481
-0.0424727 -0.29722124 -0.5519732 0.81748 1.4117887 0.068770856 0.28302267 0.42913848
-0.49321404 -0.08626799 -0.020001493 -0.082844086 0.03548169 -0.03735624 -0.016605562 0.13818707
-0.06535313 -0.032468013 -0.02126248 0.0691616 0.03238938 -0.0024419283 0.037256703 -0.5702098
0.20632301 0.07079419 -0.65275145 -0.3706337 -0.5608547 -0.45882323 -0.39816576 -0.46415588
-0.0057899146 0.15947524 0.07984519 0.024586208 0.08119174 0.041660797 0.15590337 -0.0013068691
00000000: f898 c6bf d3e7 c5bc c466 d4be e178 01bf
00000010: 7d6f 0c3f 765e 4d3e dca0 7cbe 4ad9 713c
00000020: 32e4 8bbd d084 14be 1246 01be 1a5d b9bf
00000030: b3b6 ae3e fb5e dd3e 8076 613e 25b2 ef3d
00000040: 1c60 d4be 451a 99bc e707 ccbc 23dc 333f
00000050: d33a a2bd 2c75 adbb 1c0b 473f a81b bd3e
00000060: 22d8 c23e 2331 b23e aad5 4b3e d84d 113f
00000070: ab5f 093d f6d0 9f3d e2c8 8a3d 021f 0ebe
00000080: 0b38 dc3d 0ad4 ca3d 1d5a 063e 8720 013e
00000090: e83c b1bc 74f2 57bc 6e13 b03d 9a6c 503f
000000a0: aa1f c93d 9f62 97be 91e4 01bf bb95 453f
000000b0: 8d70 d3bf c6b0 473d b429 eebe ecce a7be
000000c0: 77ab d43e 9881 0f3e ffb7 85be ff90 24be
000000d0: bc47 ef3d a066 b73e 564f 013f 9dcf 013f
000000e0: ae31 0ebf 2e56 2ebe 44de 74bd 5e82 d6be
000000f0: 0f03 8c3d c997 943d 0574 e1bd 2eca 403f
00000100: 1189 c1bc cc95 50be 24a0 2a3f 387d da3e
00000110: 3c3f 223f f764 183f 2c6f 853e b4bb a03e
00000120: 4646 e23d b6e8 b13c 9612 7bbd fd8b 29bd
00000130: 29ab 043d 0f4a a63c 0438 1a3d 3aa5 183c
00000140: 6383 123d bd12 99bd e22a c53c fa1f 573f
00000150: 4f99 f23c 65f1 4ebe ab59 1bbf d2fd 623f
00000160: 6f58 bebf a24f 17be 5000 6abe 52b5 05bf
00000170: a951 0d3f 3a39 913e 43d8 f5bd a134 4cbd
00000180: 8857 0ebe 2400 5b3d 99e3 cfbe 034d 00bf
00000190: 04dc 2b3f 7809 e9be 231f c5bd 171d 8b3d
000001a0: 227c 0f3d 628a 36be a863 9cbd 304c 1f3f
000001b0: 0449 703d ab97 ae3d 90e9 253f f8cd 133f
000001c0: 20f7 1d3f 8a5a 2e3f 00c5 853e 59d3 f93e
000001d0: a9ed ffbd 6412 9bbd f431 403d 63cb 78bd
000001e0: b4b2 a33c 864d 5f3c 3f5e 603d 0f05 b33d
000001f0: 524d 613d c50f 6f3d c260 7cbd c8a4 353f
00000200: 2471 873d 188f 97be ac04 dabe 162c 673f
00000210: 6e2f c7bf c238 b3be 6256 d83d 275a 3bbf
00000220: 4502 2f3f c5fa 923b 66a9 753c 051c b53d
00000230: 053f e6bd 2909 23be 5a14 5dbe 60d2 3a3e
00000240: a5a3 303f 4ace b73d 4db5 f3be a8af e8bd
00000250: 1477 613f a783 313d c2ab 0bbd 9f9d 383f
00000260: 9d27 253e 95a0 973e 9ee8 423f e96a 253f
00000270: 4fe9 083f 37f6 233f aa9f e93e 9e29 df3e
00000280: ae0a aa3d ba52 623b d427 c3bc bda1 59bd
00000290: 59ab 093e 8f69 263d 7d18 8d3d d475 33bc
000002a0: 8aaf 55bd 1349 583e 260a 0a3d 4594 3d3f
000002b0: 8b29 d73c 21ea 19be 213f c4be a565 5e3f
000002c0: 91f1 cebf 2f11 3a3e a732 02be 625d 32bf
000002d0: cecc 033f 32fa e93d f7e7 19be 891d 02be
000002e0: a5f1 ea3d 5956 f9ba 9e0c 9cbe 7973 ff3e
000002f0: 155d 54bd 16f0 d0be 2ff7 2d3f e464 223f
00000300: 7807 c73e 2b82 633d 16d0 4abd 8380 433f
00000310: df13 bb3d cd16 a83c 09f3 143f 1857 163f
00000320: 7b3c 1a3f d8cb 123f e916 8e3e a633 0e3f
00000330: 427e 6f3d b1ff 80bd b356 ad3d b67f 9f3c
00000340: f9d3 683d 4087 edba aa0d de3b d65e a6bb
00000350: 1c79 9f3d 71ad 303c 0aaf 573d e7cd 113f
00000360: dbf7 2dbd 622d 98be 1e4e 0dbf 5f46 513f
00000370: 7eb5 b43f bcd7 8c3d 59e8 903e 0ab8 db3e
00000380: 8d86 fcbe 46ad b0bd 2cda a3bc 29aa a9bd
00000390: 4055 113d db02 19bd 6308 88bc e980 0d3e
000003a0: ddd7 85bd 2efd 04bd a72e aebc 99a4 8d3d
000003b0: baaa 043d c208 20bb 7c9a 183d 45f9 11bf
000003c0: 5746 533e 8bfc 903d b81a 27bf b3c3 bdbe
000003d0: 2c94 0fbf e1ea eabe 62dc cbbe d7a5 edbe
000003e0: 53b9 bdbb 7a4d 233e e085 a33d 0469 c93c
000003f0: db47 a63d 83a4 2a3d 22a5 1f3e 404b abba

0.bias f4 [32]
0.92620116 0.7079559 0.9385569 0.72621024 0.7295087 -0.5364415 0.8834744 0.7839595
-0.68005717 -0.68021 -0.6470149 -0.78401476 0.9416736 1.0024475 0.7693207 0.92527306
0.93458384 1.0349894 0.7062987 0.69369215 1.0139228 -0.12383927 -0.7559438 -0.7200345
0.8524421 0.9087667 -0.75397766 -0.7054886 -0.5312168 -0.7562871 -0.76950413 -0.47327825
00000000: 851b 6d3f 993c 353f 4445 703f eae8 393f
00000010: 15c1 3a3f 3b54 09bf 612b 623f 92b1 483f
00000020: 3a18 2ebf 3e22 2ebf c5a2 25bf 31b5 48bf
00000030: 8511 713f 3350 803f 34f2 443f b2de 6c3f
00000040: e340 6f3f 887a 843f fecf 343f cf95 313f
00000050: 39c8 813f 719f fdbd 8885 41bf 2e54 38bf
00000060: a539 5a3f efa4 683f ae04 41bf e79a 34bf
00000070: d3fd 07bf 089c 41bf 39fe 44bf 8751 f2be

2.weight f4 [1, 32]
-0.09382833 -0.22015788 -0.16984315 -0.18483847 -0.25323117 0.13677743 -0.14965552 -0.17387587
0.13361779 0.14768612 0.11958703 0.18199691 -0.12579161 -0.23935671 -0.11890631 -0.067154884
-0.23410518 -0.2349104 -0.2225004 -0.106147654 -0.22495717 0.15381183 0.07779985 0.10927171
-0.110400595 -0.2757818 0.22027892 0.10784326 0.14778464 0.11928882 0.13480547 0.21680547
00000000: 1129 c0bd 1171 61be 5deb 2dbe 4c46 3dbe
00000010: 84a7 81be 620f 0c3e 4c3f 19be 840c 32be
00000020: 1ad3 083e 083b 173e 0bea f43d 665d 3a3e
00000030: 84cf 00be ed19 75be 2785 f3bd 8088 89bd
00000040: 45b9 6fbe 5a8c 70be 25d7 63be f163 d9bd
00000050: 2c5b 66be d980 1d3e 8755 9f3d d9c9 df3d
00000060: b519 e2bd 4633 8dbe cc90 613e eddc dc3d
00000070: db54 173e b24d f43d 720a 0a3e 4102 5e3e
